…
a
{'encoder': {'layers': [[3, 64, 64], [64, 128, 128], [128, 256, 256]]}, 'decoder': {'layers': [[256, 128, 128, 128], [128, 64, 64, 64]]}, 'diffusion': {'T': 500, 'BETA1': 0.0001, 'BETAT': 0.02, 'd': 12288}, 'training': {'batch_size': 128, 'num_epochs': 15, 'lr': 0.001, 'save_path': './logs/', 'data_path': '/home/dhruvb/adrl/datasets/img_align_celeba_resampled/', 'file_extn': 'jpg', 'chkpt_path': './chkpt/', 'chkpt_file': 'expt_1a_celeba.chk.pt', 'load_from_chkpt': False}, 'ddpm': {'image_size': 64, 'channels': 3}}
-----------------------------------------------------------
Unet(
  (init_conv): Conv2d(3, 42, kernel_size=(7, 7), stride=(1, 1), padding=(3, 3))
  (time_mlp): Sequential(
    (0): SinusoidalPositionEmbeddings()
    (1): Linear(in_features=64, out_features=256, bias=True)
    (2): GELU(approximate=none)
    (3): Linear(in_features=256, out_features=256, bias=True)
  )
  (downs): ModuleList(
    (0): ModuleList(
      (0): ResnetBlock(
        (mlp): Sequential(
          (0): SiLU()
          (1): Linear(in_features=256, out_features=64, bias=True)
        )
        (block1): Block(
          (proj): Conv2d(42, 64, kernel_size=(3, 3), stride=(1, 1), padding=(1, 1))
          (norm): GroupNorm(8, 64, eps=1e-05, affine=True)
          (act): SiLU()
        )
        (block2): Block(
          (proj): Conv2d(64, 64, kernel_size=(3, 3), stride=(1, 1), padding=(1, 1))
          (norm): GroupNorm(8, 64, eps=1e-05, affine=True)
          (act): SiLU()
        )
        (res_conv): Conv2d(42, 64, kernel_size=(1, 1), stride=(1, 1))
      )
      (1): ResnetBlock(
        (mlp): Sequential(
          (0): SiLU()
          (1): Linear(in_features=256, out_features=64, bias=True)
        )
        (block1): Block(
          (proj): Conv2d(64, 64, kernel_size=(3, 3), stride=(1, 1), padding=(1, 1))
          (norm): GroupNorm(8, 64, eps=1e-05, affine=True)
          (act): SiLU()
        )
        (block2): Block(
          (proj): Conv2d(64, 64, kernel_size=(3, 3), stride=(1, 1), padding=(1, 1))
          (norm): GroupNorm(8, 64, eps=1e-05, affine=True)
          (act): SiLU()
        )
        (res_conv): Identity()
      )
      (2): Residual(
        (fn): PreNorm(
          (fn): LinearAttention(
            (to_qkv): Conv2d(64, 384, kernel_size=(1, 1), stride=(1, 1), bias=False)
            (to_out): Sequential(
              (0): Conv2d(128, 64, kernel_size=(1, 1), stride=(1, 1))
              (1): GroupNorm(1, 64, eps=1e-05, affine=True)
            )
          )
          (norm): GroupNorm(1, 64, eps=1e-05, affine=True)
        )
      )
      (3): Conv2d(64, 64, kernel_size=(4, 4), stride=(2, 2), padding=(1, 1))
    )
    (1): ModuleList(
      (0): ResnetBlock(
        (mlp): Sequential(
          (0): SiLU()
          (1): Linear(in_features=256, out_features=128, bias=True)
        )
        (block1): Block(
          (proj): Conv2d(64, 128, kernel_size=(3, 3), stride=(1, 1), padding=(1, 1))
          (norm): GroupNorm(8, 128, eps=1e-05, affine=True)
          (act): SiLU()
        )
        (block2): Block(
          (proj): Conv2d(128, 128, kernel_size=(3, 3), stride=(1, 1), padding=(1, 1))
          (norm): GroupNorm(8, 128, eps=1e-05, affine=True)
          (act): SiLU()
        )
        (res_conv): Conv2d(64, 128, kernel_size=(1, 1), stride=(1, 1))
      )
      (1): ResnetBlock(
        (mlp): Sequential(
          (0): SiLU()
          (1): Linear(in_features=256, out_features=128, bias=True)
        )
        (block1): Block(
          (proj): Conv2d(128, 128, kernel_size=(3, 3), stride=(1, 1), padding=(1, 1))
          (norm): GroupNorm(8, 128, eps=1e-05, affine=True)
          (act): SiLU()
        )
        (block2): Block(
          (proj): Conv2d(128, 128, kernel_size=(3, 3), stride=(1, 1), padding=(1, 1))
          (norm): GroupNorm(8, 128, eps=1e-05, affine=True)
          (act): SiLU()
        )
        (res_conv): Identity()
      )
      (2): Residual(
        (fn): PreNorm(
          (fn): LinearAttention(
            (to_qkv): Conv2d(128, 384, kernel_size=(1, 1), stride=(1, 1), bias=False)
            (to_out): Sequential(
              (0): Conv2d(128, 128, kernel_size=(1, 1), stride=(1, 1))
              (1): GroupNorm(1, 128, eps=1e-05, affine=True)
            )
          )
          (norm): GroupNorm(1, 128, eps=1e-05, affine=True)
        )
      )
      (3): Conv2d(128, 128, kernel_size=(4, 4), stride=(2, 2), padding=(1, 1))
    )
    (2): ModuleList(
      (0): ResnetBlock(
        (mlp): Sequential(
          (0): SiLU()
          (1): Linear(in_features=256, out_features=256, bias=True)
        )
        (block1): Block(
          (proj): Conv2d(128, 256, kernel_size=(3, 3), stride=(1, 1), padding=(1, 1))
          (norm): GroupNorm(8, 256, eps=1e-05, affine=True)
          (act): SiLU()
        )
        (block2): Block(
          (proj): Conv2d(256, 256, kernel_size=(3, 3), stride=(1, 1), padding=(1, 1))
          (norm): GroupNorm(8, 256, eps=1e-05, affine=True)
          (act): SiLU()
        )
        (res_conv): Conv2d(128, 256, kernel_size=(1, 1), stride=(1, 1))
      )
      (1): ResnetBlock(
        (mlp): Sequential(
          (0): SiLU()
          (1): Linear(in_features=256, out_features=256, bias=True)
        )
        (block1): Block(
          (proj): Conv2d(256, 256, kernel_size=(3, 3), stride=(1, 1), padding=(1, 1))
          (norm): GroupNorm(8, 256, eps=1e-05, affine=True)
          (act): SiLU()
        )
        (block2): Block(
          (proj): Conv2d(256, 256, kernel_size=(3, 3), stride=(1, 1), padding=(1, 1))
          (norm): GroupNorm(8, 256, eps=1e-05, affine=True)
          (act): SiLU()
        )
        (res_conv): Identity()
      )
      (2): Residual(
        (fn): PreNorm(
          (fn): LinearAttention(
            (to_qkv): Conv2d(256, 384, kernel_size=(1, 1), stride=(1, 1), bias=False)
            (to_out): Sequential(
              (0): Conv2d(128, 256, kernel_size=(1, 1), stride=(1, 1))
              (1): GroupNorm(1, 256, eps=1e-05, affine=True)
            )
          )
          (norm): GroupNorm(1, 256, eps=1e-05, affine=True)
        )
      )
      (3): Identity()
    )
  )
  (ups): ModuleList(
    (0): ModuleList(
      (0): ResnetBlock(
        (mlp): Sequential(
          (0): SiLU()
          (1): Linear(in_features=256, out_features=128, bias=True)
        )
        (block1): Block(
          (proj): Conv2d(512, 128, kernel_size=(3, 3), stride=(1, 1), padding=(1, 1))
          (norm): GroupNorm(8, 128, eps=1e-05, affine=True)
          (act): SiLU()
        )
        (block2): Block(
          (proj): Conv2d(128, 128, kernel_size=(3, 3), stride=(1, 1), padding=(1, 1))
          (norm): GroupNorm(8, 128, eps=1e-05, affine=True)
          (act): SiLU()
        )
        (res_conv): Conv2d(512, 128, kernel_size=(1, 1), stride=(1, 1))
      )
      (1): ResnetBlock(
        (mlp): Sequential(
          (0): SiLU()
          (1): Linear(in_features=256, out_features=128, bias=True)
        )
        (block1): Block(
          (proj): Conv2d(128, 128, kernel_size=(3, 3), stride=(1, 1), padding=(1, 1))
          (norm): GroupNorm(8, 128, eps=1e-05, affine=True)
          (act): SiLU()
        )
        (block2): Block(
          (proj): Conv2d(128, 128, kernel_size=(3, 3), stride=(1, 1), padding=(1, 1))
          (norm): GroupNorm(8, 128, eps=1e-05, affine=True)
          (act): SiLU()
        )
        (res_conv): Identity()
      )
      (2): Residual(
        (fn): PreNorm(
          (fn): LinearAttention(
            (to_qkv): Conv2d(128, 384, kernel_size=(1, 1), stride=(1, 1), bias=False)
            (to_out): Sequential(
              (0): Conv2d(128, 128, kernel_size=(1, 1), stride=(1, 1))
              (1): GroupNorm(1, 128, eps=1e-05, affine=True)
            )
          )
          (norm): GroupNorm(1, 128, eps=1e-05, affine=True)
        )
      )
      (3): ConvTranspose2d(128, 128, kernel_size=(4, 4), stride=(2, 2), padding=(1, 1))
    )
    (1): ModuleList(
      (0): ResnetBlock(
        (mlp): Sequential(
          (0): SiLU()
          (1): Linear(in_features=256, out_features=64, bias=True)
        )
        (block1): Block(
          (proj): Conv2d(256, 64, kernel_size=(3, 3), stride=(1, 1), padding=(1, 1))
          (norm): GroupNorm(8, 64, eps=1e-05, affine=True)
          (act): SiLU()
        )
        (block2): Block(
          (proj): Conv2d(64, 64, kernel_size=(3, 3), stride=(1, 1), padding=(1, 1))
          (norm): GroupNorm(8, 64, eps=1e-05, affine=True)
          (act): SiLU()
        )
        (res_conv): Conv2d(256, 64, kernel_size=(1, 1), stride=(1, 1))
      )
      (1): ResnetBlock(
        (mlp): Sequential(
          (0): SiLU()
          (1): Linear(in_features=256, out_features=64, bias=True)
        )
        (block1): Block(
          (proj): Conv2d(64, 64, kernel_size=(3, 3), stride=(1, 1), padding=(1, 1))
          (norm): GroupNorm(8, 64, eps=1e-05, affine=True)
          (act): SiLU()
        )
        (block2): Block(
          (proj): Conv2d(64, 64, kernel_size=(3, 3), stride=(1, 1), padding=(1, 1))
          (norm): GroupNorm(8, 64, eps=1e-05, affine=True)
          (act): SiLU()
        )
        (res_conv): Identity()
      )
      (2): Residual(
        (fn): PreNorm(
          (fn): LinearAttention(
            (to_qkv): Conv2d(64, 384, kernel_size=(1, 1), stride=(1, 1), bias=False)
            (to_out): Sequential(
              (0): Conv2d(128, 64, kernel_size=(1, 1), stride=(1, 1))
              (1): GroupNorm(1, 64, eps=1e-05, affine=True)
            )
          )
          (norm): GroupNorm(1, 64, eps=1e-05, affine=True)
        )
      )
      (3): ConvTranspose2d(64, 64, kernel_size=(4, 4), stride=(2, 2), padding=(1, 1))
    )
  )
  (mid_block1): ResnetBlock(
    (mlp): Sequential(
      (0): SiLU()
      (1): Linear(in_features=256, out_features=256, bias=True)
    )
    (block1): Block(
      (proj): Conv2d(256, 256, kernel_size=(3, 3), stride=(1, 1), padding=(1, 1))
      (norm): GroupNorm(8, 256, eps=1e-05, affine=True)
      (act): SiLU()
    )
    (block2): Block(
      (proj): Conv2d(256, 256, kernel_size=(3, 3), stride=(1, 1), padding=(1, 1))
      (norm): GroupNorm(8, 256, eps=1e-05, affine=True)
      (act): SiLU()
    )
    (res_conv): Identity()
  )
  (mid_attn): Residual(
    (fn): PreNorm(
      (fn): Attention(
        (to_qkv): Conv2d(256, 384, kernel_size=(1, 1), stride=(1, 1), bias=False)
        (to_out): Conv2d(128, 256, kernel_size=(1, 1), stride=(1, 1))
      )
      (norm): GroupNorm(1, 256, eps=1e-05, affine=True)
    )
  )
  (mid_block2): ResnetBlock(
    (mlp): Sequential(
      (0): SiLU()
      (1): Linear(in_features=256, out_features=256, bias=True)
    )
    (block1): Block(
      (proj): Conv2d(256, 256, kernel_size=(3, 3), stride=(1, 1), padding=(1, 1))
      (norm): GroupNorm(8, 256, eps=1e-05, affine=True)
      (act): SiLU()
    )
    (block2): Block(
      (proj): Conv2d(256, 256, kernel_size=(3, 3), stride=(1, 1), padding=(1, 1))
      (norm): GroupNorm(8, 256, eps=1e-05, affine=True)
      (act): SiLU()
    )
    (res_conv): Identity()
  )
  (final_conv): Sequential(
    (0): ResnetBlock(
      (block1): Block(
        (proj): Conv2d(64, 64, kernel_size=(3, 3), stride=(1, 1), padding=(1, 1))
        (norm): GroupNorm(8, 64, eps=1e-05, affine=True)
        (act): SiLU()
      )
      (block2): Block(
        (proj): Conv2d(64, 64, kernel_size=(3, 3), stride=(1, 1), padding=(1, 1))
        (norm): GroupNorm(8, 64, eps=1e-05, affine=True)
        (act): SiLU()
      )
      (res_conv): Identity()
    )
    (1): Conv2d(64, 3, kernel_size=(1, 1), stride=(1, 1))
  )
)
[INFO] DATA_PATH=/home/dhruvb/adrl/datasets/img_align_celeba_resampled/, BATCH_SIZE=128
[INFO] Found data set with 202599 samples
-----------------------------------------------------------
Starting Training of model
Epoch 1......Step: 500/1583....... Loss=  1.6551e+06
Epoch 1......Step: 1000/1583....... Loss=  1.9728e+06
Epoch 1......Step: 1500/1583....... Loss=  2.2652e+06
…
