cuda:1
-----------------------------------------------------------
-----------------------------------------------------------
ENCODER
-----------------------------------------------------------
ModuleList(
  (0): convBlock(
    (net): ModuleList(
      (0): Conv2d(3, 64, kernel_size=(3, 3), stride=(1, 1))
      (1): GroupNorm(4, 64, eps=1e-05, affine=True)
      (2): ReLU()
      (3): Conv2d(64, 64, kernel_size=(3, 3), stride=(1, 1))
      (4): GroupNorm(4, 64, eps=1e-05, affine=True)
      (5): ReLU()
    )
  )
  (1): MaxPool2d(kernel_size=(2, 2), stride=(2, 2), padding=0, dilation=1, ceil_mode=False)
  (2): convBlock(
    (net): ModuleList(
      (0): Conv2d(64, 128, kernel_size=(3, 3), stride=(1, 1))
      (1): GroupNorm(4, 128, eps=1e-05, affine=True)
      (2): ReLU()
      (3): Conv2d(128, 128, kernel_size=(3, 3), stride=(1, 1))
      (4): GroupNorm(4, 128, eps=1e-05, affine=True)
      (5): ReLU()
    )
  )
  (3): MaxPool2d(kernel_size=(2, 2), stride=(2, 2), padding=0, dilation=1, ceil_mode=False)
  (4): convBlock(
    (net): ModuleList(
      (0): Conv2d(128, 256, kernel_size=(3, 3), stride=(1, 1))
      (1): GroupNorm(4, 256, eps=1e-05, affine=True)
      (2): ReLU()
      (3): Conv2d(256, 256, kernel_size=(3, 3), stride=(1, 1))
      (4): GroupNorm(4, 256, eps=1e-05, affine=True)
      (5): ReLU()
    )
  )
)
-----------------------------------------------------------
-----------------------------------------------------------
DECODER
-----------------------------------------------------------
ModuleList(
  (0): ConvTranspose2d(256, 128, kernel_size=(2, 2), stride=(2, 2))
  (1): convBlock(
    (net): ModuleList(
      (0): Conv2d(256, 128, kernel_size=(3, 3), stride=(1, 1))
      (1): GroupNorm(4, 128, eps=1e-05, affine=True)
      (2): ReLU()
      (3): Conv2d(128, 128, kernel_size=(3, 3), stride=(1, 1))
      (4): GroupNorm(4, 128, eps=1e-05, affine=True)
      (5): ReLU()
    )
  )
  (2): ConvTranspose2d(128, 64, kernel_size=(2, 2), stride=(2, 2))
  (3): convBlock(
    (net): ModuleList(
      (0): Conv2d(128, 64, kernel_size=(3, 3), stride=(1, 1))
      (1): GroupNorm(4, 64, eps=1e-05, affine=True)
      (2): ReLU()
      (3): Conv2d(64, 64, kernel_size=(3, 3), stride=(1, 1))
      (4): GroupNorm(4, 64, eps=1e-05, affine=True)
      (5): ReLU()
    )
  )
)
-----------------------------------------------------------
ConvTranspose2d(64, 32, kernel_size=(3, 3), stride=(3, 3), padding=(4, 4))
-----------------------------------------------------------
Conv2d(32, 3, kernel_size=(1, 1), stride=(1, 1))
-----------------------------------------------------------
…
Epoch 1......Step: 2500/3166....... Loss=  3.0767e+07 (l[xt<-xt1]=  3.0767e+07,l[x0<-x1]=         0.0)
Epoch 1......Step: 3000/3166....... Loss=  3.6911e+07 (l[xt<-xt1]=  3.6911e+07,l[x0<-x1]=         0.0)
202599
Epoch 1/500 Done, Loss =   1.2303e+04 (l[xt<-xt1]=  1.2303e+04,l[x0<-x1]=         0.0)
Total Time Elapsed=16883        seconds
-----------------------------------------------------------
cuda:1
-----------------------------------------------------------
-----------------------------------------------------------
ENCODER
-----------------------------------------------------------
ModuleList(
  (0): convBlock(
    (net): ModuleList(
      (0): Conv2d(3, 64, kernel_size=(3, 3), stride=(1, 1))
      (1): GroupNorm(4, 64, eps=1e-05, affine=True)
      (2): ReLU()
      (3): Conv2d(64, 64, kernel_size=(3, 3), stride=(1, 1))
      (4): GroupNorm(4, 64, eps=1e-05, affine=True)
      (5): ReLU()
    )
  )
  (1): MaxPool2d(kernel_size=(2, 2), stride=(2, 2), padding=0, dilation=1, ceil_mode=False)
  (2): convBlock(
    (net): ModuleList(
      (0): Conv2d(64, 128, kernel_size=(3, 3), stride=(1, 1))
      (1): GroupNorm(4, 128, eps=1e-05, affine=True)
      (2): ReLU()
      (3): Conv2d(128, 128, kernel_size=(3, 3), stride=(1, 1))
      (4): GroupNorm(4, 128, eps=1e-05, affine=True)
      (5): ReLU()
    )
  )
  (3): MaxPool2d(kernel_size=(2, 2), stride=(2, 2), padding=0, dilation=1, ceil_mode=False)
  (4): convBlock(
    (net): ModuleList(
      (0): Conv2d(128, 256, kernel_size=(3, 3), stride=(1, 1))
      (1): GroupNorm(4, 256, eps=1e-05, affine=True)
      (2): ReLU()
      (3): Conv2d(256, 256, kernel_size=(3, 3), stride=(1, 1))
      (4): GroupNorm(4, 256, eps=1e-05, affine=True)
      (5): ReLU()
    )
  )
)
-----------------------------------------------------------
-----------------------------------------------------------
DECODER
-----------------------------------------------------------
ModuleList(
  (0): ConvTranspose2d(256, 128, kernel_size=(2, 2), stride=(2, 2))
  (1): convBlock(
    (net): ModuleList(
      (0): Conv2d(256, 128, kernel_size=(3, 3), stride=(1, 1))
      (1): GroupNorm(4, 128, eps=1e-05, affine=True)
      (2): ReLU()
      (3): Conv2d(128, 128, kernel_size=(3, 3), stride=(1, 1))
      (4): GroupNorm(4, 128, eps=1e-05, affine=True)
      (5): ReLU()
    )
  )
  (2): ConvTranspose2d(128, 64, kernel_size=(2, 2), stride=(2, 2))
  (3): convBlock(
    (net): ModuleList(
      (0): Conv2d(128, 64, kernel_size=(3, 3), stride=(1, 1))
      (1): GroupNorm(4, 64, eps=1e-05, affine=True)
      (2): ReLU()
      (3): Conv2d(64, 64, kernel_size=(3, 3), stride=(1, 1))
      (4): GroupNorm(4, 64, eps=1e-05, affine=True)
      (5): ReLU()
    )
  )
)
-----------------------------------------------------------
ConvTranspose2d(64, 32, kernel_size=(3, 3), stride=(3, 3), padding=(4, 4))
-----------------------------------------------------------
Conv2d(32, 3, kernel_size=(1, 1), stride=(1, 1))
-----------------------------------------------------------
Tanh()
-----------------------------------------------------------
Loading checkpoint from: ./chkpt/expt_1a_celeba.chk.pt
cuda:1
-----------------------------------------------------------
-----------------------------------------------------------
ENCODER
-----------------------------------------------------------
ModuleList(
  (0): convBlock(
    (net): ModuleList(
      (0): Conv2d(3, 64, kernel_size=(3, 3), stride=(1, 1))
      (1): GroupNorm(4, 64, eps=1e-05, affine=True)
      (2): ReLU()
      (3): Conv2d(64, 64, kernel_size=(3, 3), stride=(1, 1))
      (4): GroupNorm(4, 64, eps=1e-05, affine=True)
      (5): ReLU()
    )
  )
  (1): MaxPool2d(kernel_size=(2, 2), stride=(2, 2), padding=0, dilation=1, ceil_mode=False)
  (2): convBlock(
    (net): ModuleList(
      (0): Conv2d(64, 128, kernel_size=(3, 3), stride=(1, 1))
      (1): GroupNorm(4, 128, eps=1e-05, affine=True)
      (2): ReLU()
      (3): Conv2d(128, 128, kernel_size=(3, 3), stride=(1, 1))
      (4): GroupNorm(4, 128, eps=1e-05, affine=True)
      (5): ReLU()
    )
  )
  (3): MaxPool2d(kernel_size=(2, 2), stride=(2, 2), padding=0, dilation=1, ceil_mode=False)
  (4): convBlock(
    (net): ModuleList(
      (0): Conv2d(128, 256, kernel_size=(3, 3), stride=(1, 1))
      (1): GroupNorm(4, 256, eps=1e-05, affine=True)
      (2): ReLU()
      (3): Conv2d(256, 256, kernel_size=(3, 3), stride=(1, 1))
      (4): GroupNorm(4, 256, eps=1e-05, affine=True)
      (5): ReLU()
    )
  )
)
-----------------------------------------------------------
-----------------------------------------------------------
DECODER
-----------------------------------------------------------
ModuleList(
  (0): ConvTranspose2d(256, 128, kernel_size=(2, 2), stride=(2, 2))
  (1): convBlock(
    (net): ModuleList(
      (0): Conv2d(256, 128, kernel_size=(3, 3), stride=(1, 1))
      (1): GroupNorm(4, 128, eps=1e-05, affine=True)
      (2): ReLU()
      (3): Conv2d(128, 128, kernel_size=(3, 3), stride=(1, 1))
      (4): GroupNorm(4, 128, eps=1e-05, affine=True)
      (5): ReLU()
    )
  )
  (2): ConvTranspose2d(128, 64, kernel_size=(2, 2), stride=(2, 2))
  (3): convBlock(
    (net): ModuleList(
      (0): Conv2d(128, 64, kernel_size=(3, 3), stride=(1, 1))
      (1): GroupNorm(4, 64, eps=1e-05, affine=True)
      (2): ReLU()
      (3): Conv2d(64, 64, kernel_size=(3, 3), stride=(1, 1))
      (4): GroupNorm(4, 64, eps=1e-05, affine=True)
      (5): ReLU()
    )
  )
)
-----------------------------------------------------------
ConvTranspose2d(64, 32, kernel_size=(3, 3), stride=(3, 3), padding=(4, 4))
-----------------------------------------------------------
Conv2d(32, 3, kernel_size=(1, 1), stride=(1, 1))
-----------------------------------------------------------
Tanh()
-----------------------------------------------------------
Loading checkpoint from: ./chkpt/expt_1a_celeba.chk.pt
cuda:1
-----------------------------------------------------------
-----------------------------------------------------------
ENCODER
-----------------------------------------------------------
ModuleList(
  (0): convBlock(
    (net): ModuleList(
      (0): Conv2d(3, 64, kernel_size=(3, 3), stride=(1, 1))
      (1): GroupNorm(4, 64, eps=1e-05, affine=True)
      (2): ReLU()
      (3): Conv2d(64, 64, kernel_size=(3, 3), stride=(1, 1))
      (4): GroupNorm(4, 64, eps=1e-05, affine=True)
      (5): ReLU()
    )
  )
  (1): MaxPool2d(kernel_size=(2, 2), stride=(2, 2), padding=0, dilation=1, ceil_mode=False)
  (2): convBlock(
    (net): ModuleList(
      (0): Conv2d(64, 128, kernel_size=(3, 3), stride=(1, 1))
      (1): GroupNorm(4, 128, eps=1e-05, affine=True)
      (2): ReLU()
      (3): Conv2d(128, 128, kernel_size=(3, 3), stride=(1, 1))
      (4): GroupNorm(4, 128, eps=1e-05, affine=True)
      (5): ReLU()
    )
  )
  (3): MaxPool2d(kernel_size=(2, 2), stride=(2, 2), padding=0, dilation=1, ceil_mode=False)
  (4): convBlock(
    (net): ModuleList(
      (0): Conv2d(128, 256, kernel_size=(3, 3), stride=(1, 1))
      (1): GroupNorm(4, 256, eps=1e-05, affine=True)
      (2): ReLU()
      (3): Conv2d(256, 256, kernel_size=(3, 3), stride=(1, 1))
      (4): GroupNorm(4, 256, eps=1e-05, affine=True)
      (5): ReLU()
    )
  )
)
-----------------------------------------------------------
-----------------------------------------------------------
DECODER
-----------------------------------------------------------
ModuleList(
  (0): ConvTranspose2d(256, 128, kernel_size=(2, 2), stride=(2, 2))
  (1): convBlock(
    (net): ModuleList(
      (0): Conv2d(256, 128, kernel_size=(3, 3), stride=(1, 1))
      (1): GroupNorm(4, 128, eps=1e-05, affine=True)
      (2): ReLU()
      (3): Conv2d(128, 128, kernel_size=(3, 3), stride=(1, 1))
      (4): GroupNorm(4, 128, eps=1e-05, affine=True)
      (5): ReLU()
    )
  )
  (2): ConvTranspose2d(128, 64, kernel_size=(2, 2), stride=(2, 2))
  (3): convBlock(
    (net): ModuleList(
      (0): Conv2d(128, 64, kernel_size=(3, 3), stride=(1, 1))
      (1): GroupNorm(4, 64, eps=1e-05, affine=True)
      (2): ReLU()
      (3): Conv2d(64, 64, kernel_size=(3, 3), stride=(1, 1))
      (4): GroupNorm(4, 64, eps=1e-05, affine=True)
      (5): ReLU()
    )
  )
)
-----------------------------------------------------------
ConvTranspose2d(64, 32, kernel_size=(3, 3), stride=(3, 3), padding=(4, 4))
-----------------------------------------------------------
Conv2d(32, 3, kernel_size=(1, 1), stride=(1, 1))
-----------------------------------------------------------
Tanh()
-----------------------------------------------------------
Loading checkpoint from: ./chkpt/expt_1a_celeba.chk.pt
[INFO] DATA_PATH=/home/dhruvb/adrl/datasets/img_align_celeba_resampled/, BATCH_SIZE=64
[INFO] Found data set with 202599 samples
-----------------------------------------------------------
Starting Training of model
cuda:1
-----------------------------------------------------------
-----------------------------------------------------------
ENCODER
-----------------------------------------------------------
ModuleList(
  (0): convBlock(
    (net): ModuleList(
      (0): Conv2d(3, 64, kernel_size=(3, 3), stride=(1, 1))
      (1): GroupNorm(4, 64, eps=1e-05, affine=True)
      (2): ReLU()
      (3): Conv2d(64, 64, kernel_size=(3, 3), stride=(1, 1))
      (4): GroupNorm(4, 64, eps=1e-05, affine=True)
      (5): ReLU()
    )
  )
  (1): MaxPool2d(kernel_size=(2, 2), stride=(2, 2), padding=0, dilation=1, ceil_mode=False)
  (2): convBlock(
    (net): ModuleList(
      (0): Conv2d(64, 128, kernel_size=(3, 3), stride=(1, 1))
      (1): GroupNorm(4, 128, eps=1e-05, affine=True)
      (2): ReLU()
      (3): Conv2d(128, 128, kernel_size=(3, 3), stride=(1, 1))
      (4): GroupNorm(4, 128, eps=1e-05, affine=True)
      (5): ReLU()
    )
  )
  (3): MaxPool2d(kernel_size=(2, 2), stride=(2, 2), padding=0, dilation=1, ceil_mode=False)
  (4): convBlock(
    (net): ModuleList(
      (0): Conv2d(128, 256, kernel_size=(3, 3), stride=(1, 1))
      (1): GroupNorm(4, 256, eps=1e-05, affine=True)
      (2): ReLU()
      (3): Conv2d(256, 256, kernel_size=(3, 3), stride=(1, 1))
      (4): GroupNorm(4, 256, eps=1e-05, affine=True)
      (5): ReLU()
    )
  )
)
-----------------------------------------------------------
-----------------------------------------------------------
DECODER
-----------------------------------------------------------
ModuleList(
  (0): ConvTranspose2d(256, 128, kernel_size=(2, 2), stride=(2, 2))
  (1): convBlock(
    (net): ModuleList(
      (0): Conv2d(256, 128, kernel_size=(3, 3), stride=(1, 1))
      (1): GroupNorm(4, 128, eps=1e-05, affine=True)
      (2): ReLU()
      (3): Conv2d(128, 128, kernel_size=(3, 3), stride=(1, 1))
      (4): GroupNorm(4, 128, eps=1e-05, affine=True)
      (5): ReLU()
    )
  )
  (2): ConvTranspose2d(128, 64, kernel_size=(2, 2), stride=(2, 2))
  (3): convBlock(
    (net): ModuleList(
      (0): Conv2d(128, 64, kernel_size=(3, 3), stride=(1, 1))
      (1): GroupNorm(4, 64, eps=1e-05, affine=True)
      (2): ReLU()
      (3): Conv2d(64, 64, kernel_size=(3, 3), stride=(1, 1))
      (4): GroupNorm(4, 64, eps=1e-05, affine=True)
      (5): ReLU()
    )
  )
)
-----------------------------------------------------------
ConvTranspose2d(64, 32, kernel_size=(3, 3), stride=(3, 3), padding=(4, 4))
-----------------------------------------------------------
Conv2d(32, 3, kernel_size=(1, 1), stride=(1, 1))
-----------------------------------------------------------
Tanh()
-----------------------------------------------------------
Loading checkpoint from: ./chkpt/expt_1a_celeba.chk.pt
cuda:1
-----------------------------------------------------------
-----------------------------------------------------------
ENCODER
-----------------------------------------------------------
ModuleList(
  (0): convBlock(
    (net): ModuleList(
      (0): Conv2d(3, 64, kernel_size=(3, 3), stride=(1, 1))
      (1): GroupNorm(4, 64, eps=1e-05, affine=True)
      (2): ReLU()
      (3): Conv2d(64, 64, kernel_size=(3, 3), stride=(1, 1))
      (4): GroupNorm(4, 64, eps=1e-05, affine=True)
      (5): ReLU()
    )
  )
  (1): MaxPool2d(kernel_size=(2, 2), stride=(2, 2), padding=0, dilation=1, ceil_mode=False)
  (2): convBlock(
    (net): ModuleList(
      (0): Conv2d(64, 128, kernel_size=(3, 3), stride=(1, 1))
      (1): GroupNorm(4, 128, eps=1e-05, affine=True)
      (2): ReLU()
      (3): Conv2d(128, 128, kernel_size=(3, 3), stride=(1, 1))
      (4): GroupNorm(4, 128, eps=1e-05, affine=True)
      (5): ReLU()
    )
  )
  (3): MaxPool2d(kernel_size=(2, 2), stride=(2, 2), padding=0, dilation=1, ceil_mode=False)
  (4): convBlock(
    (net): ModuleList(
      (0): Conv2d(128, 256, kernel_size=(3, 3), stride=(1, 1))
      (1): GroupNorm(4, 256, eps=1e-05, affine=True)
      (2): ReLU()
      (3): Conv2d(256, 256, kernel_size=(3, 3), stride=(1, 1))
      (4): GroupNorm(4, 256, eps=1e-05, affine=True)
      (5): ReLU()
    )
  )
)
-----------------------------------------------------------
-----------------------------------------------------------
DECODER
-----------------------------------------------------------
ModuleList(
  (0): ConvTranspose2d(256, 128, kernel_size=(2, 2), stride=(2, 2))
  (1): convBlock(
    (net): ModuleList(
      (0): Conv2d(256, 128, kernel_size=(3, 3), stride=(1, 1))
      (1): GroupNorm(4, 128, eps=1e-05, affine=True)
      (2): ReLU()
      (3): Conv2d(128, 128, kernel_size=(3, 3), stride=(1, 1))
      (4): GroupNorm(4, 128, eps=1e-05, affine=True)
      (5): ReLU()
    )
  )
  (2): ConvTranspose2d(128, 64, kernel_size=(2, 2), stride=(2, 2))
  (3): convBlock(
    (net): ModuleList(
      (0): Conv2d(128, 64, kernel_size=(3, 3), stride=(1, 1))
      (1): GroupNorm(4, 64, eps=1e-05, affine=True)
      (2): ReLU()
      (3): Conv2d(64, 64, kernel_size=(3, 3), stride=(1, 1))
      (4): GroupNorm(4, 64, eps=1e-05, affine=True)
      (5): ReLU()
    )
  )
)
-----------------------------------------------------------
ConvTranspose2d(64, 32, kernel_size=(3, 3), stride=(3, 3), padding=(4, 4))
-----------------------------------------------------------
Conv2d(32, 3, kernel_size=(1, 1), stride=(1, 1))
-----------------------------------------------------------
…
